…
ctivation='tanh'))\n","model.add(Dropout(0.5))\n","\n","model.add(Dense(17, activation='softmax'))"]},{"cell_type":"code","execution_count":null,"metadata":{"id":"rvLmdNCHWuux","outputId":"821bb3a5-0179-48d1-dd0c-8e507f2af7c8","colab":{"base_uri":"https://localhost:8080/"}},"outputs":[{"output_type":"stream","name":"stdout","text":["Model: \"sequential\"\n","_________________________________________________________________\n"," Layer (type)                Output Shape              Param #   \n","=================================================================\n"," conv2d (Conv2D)             (None, 55, 55, 96)        34944     \n","                                                                 \n"," max_pooling2d (MaxPooling2D  (None, 27, 27, 96)       0         \n"," )                                                               \n","                                                                 \n"," batch_normalization (BatchN  (None, 27, 27, 96)       384       \n"," ormalization)                                                   \n","                                                                 \n"," conv2d_1 (Conv2D)           (None, 27, 27, 256)       614656    \n","                                                                 \n"," max_pooling2d_1 (MaxPooling  (None, 13, 13, 256)      0         \n"," 2D)                                                             \n","                                                                 \n"," batch_normalization_1 (Batc  (None, 13, 13, 256)      1024      \n"," hNormalization)                                                 \n","                                                                 \n"," conv2d_2 (Conv2D)           (None, 13, 13, 384)       885120    \n","                                                                 \n"," conv2d_3 (Conv2D)           (None, 13, 13, 384)       1327488   \n","                                                                 \n"," conv2d_4 (Conv2D)           (None, 13, 13, 256)       884992    \n","                                                                 \n"," max_pooling2d_2 (MaxPooling  (None, 6, 6, 256)        0         \n"," 2D)                                                             \n","                                                                 \n"," batch_normalization_2 (Batc  (None, 6, 6, 256)        1024      \n"," hNormalization)                                                 \n","                                                                 \n"," flatten (Flatten)           (None, 9216)              0         \n","                                                                 \n"," dense (Dense)               (None, 4096)              37752832  \n","                                                                 \n"," dropout (Dropout)           (None, 4096)              0         \n","                                                                 \n"," dense_1 (Dense)             (None, 4096)              16781312  \n","                                                                 \n"," dropout_1 (Dropout)         (None, 4096)              0         \n","                                                                 \n"," dense_2 (Dense)             (None, 17)                69649     \n","                                                                 \n","=================================================================\n","Total params: 58,353,425\n","Trainable params: 58,352,209\n","Non-trainable params: 1,216\n","_________________________________________________________________\n"]}],"source":["model.summary()"]},{"cell_type":"markdown","metadata":{"id":"bKkxE4AeWuux
…
